…
        "        out = F.relu(self.fc1(out))\n",
        "        out = self.fc2(out)\n",
        "        return out\n",
        "\n",
        "from torchsummary import summary\n",
        "summary(model, (3, 128, 128))"
      ],
      "execution_count": 0,
      "outputs": [
        {
          "output_type": "stream",
          "text": [
            "----------------------------------------------------------------\n",
            "        Layer (type)               Output Shape         Param #\n",
            "================================================================\n",
            "            Conv2d-1           [-1, 64, 30, 30]          23,296\n",
            "       BatchNorm2d-2           [-1, 64, 30, 30]             128\n",
            "              ReLU-3           [-1, 64, 30, 30]               0\n",
            "         MaxPool2d-4           [-1, 64, 14, 14]               0\n",
            "            Conv2d-5            [-1, 128, 5, 5]         204,928\n",
            "       BatchNorm2d-6            [-1, 128, 5, 5]             256\n",
            "              ReLU-7            [-1, 128, 5, 5]               0\n",
            "         MaxPool2d-8            [-1, 128, 2, 2]               0\n",
            "           Dropout-9            [-1, 128, 2, 2]               0\n",
            "           Linear-10                  [-1, 128]          65,664\n",
            "           Linear-11                   [-1, 14]           1,806\n",
            "================================================================\n",
            "Total params: 296,078\n",
            "Trainable params: 296,078\n",
            "Non-trainable params: 0\n",
            "----------------------------------------------------------------\n",
            "Input size (MB): 0.19\n",
            "Forward/backward pass size (MB): 1.50\n",
            "Params size (MB): 1.13\n",
…
        "optimizer = torch.optim.Adam(model.parameters(), lr = 0.01) #Adam\n",
        "criterion = nn.MultiLabelSoftMarginLoss() \n",
        "from torchsummary import summary\n",
        "summary(model, (3, 128, 128))"
      ],
      "execution_count": 0,
      "outputs": [
        {
          "output_type": "stream",
          "text": [
            "----------------------------------------------------------------\n",
            "        Layer (type)               Output Shape         Param #\n",
            "================================================================\n",
            "            Conv2d-1           [-1, 16, 30, 30]           5,824\n",
            "       BatchNorm2d-2           [-1, 16, 30, 30]              32\n",
            "              ReLU-3           [-1, 16, 30, 30]               0\n",
            "         MaxPool2d-4           [-1, 16, 14, 14]               0\n",
            "            Conv2d-5             [-1, 32, 5, 5]          12,832\n",
            "       BatchNorm2d-6             [-1, 32, 5, 5]              64\n",
            "              ReLU-7             [-1, 32, 5, 5]               0\n",
            "         MaxPool2d-8             [-1, 32, 2, 2]               0\n",
            "           Dropout-9             [-1, 32, 2, 2]               0\n",
            "           Linear-10                   [-1, 14]           1,806\n",
            "================================================================\n",
            "Total params: 20,558\n",
            "Trainable params: 20,558\n",
            "Non-trainable params: 0\n",
            "----------------------------------------------------------------\n",
            "Input size (MB): 0.19\n",
            "Forward/backward pass size (MB): 0.37\n",
            "Params size (MB): 0.08\n",
…
        "        #out = self.conv4(out)\n",
        "        out = out.view(out.size(0),-1)\n",
        "        out = self.lastlayer(out)\n",
        "        return out\n",
        "      \n",
        "summary(model, (3, 128, 128))"
      ],
      "execution_count": 0,
      "outputs": [
        {
          "output_type": "stream",
          "text": [
            "----------------------------------------------------------------\n",
            "        Layer (type)               Output Shape         Param #\n",
            "================================================================\n",
            "            Conv2d-1         [-1, 16, 124, 124]           1,216\n",
            "       BatchNorm2d-2         [-1, 16, 124, 124]              32\n",
            "              ReLU-3         [-1, 16, 124, 124]               0\n",
            "         MaxPool2d-4           [-1, 16, 40, 40]               0\n",
            "            Conv2d-5           [-1, 32, 36, 36]          12,832\n",
            "       BatchNorm2d-6           [-1, 32, 36, 36]              64\n",
            "              ReLU-7           [-1, 32, 36, 36]               0\n",
            "         MaxPool2d-8           [-1, 32, 11, 11]               0\n",
            "            Conv2d-9             [-1, 64, 7, 7]          51,264\n",
            "      BatchNorm2d-10             [-1, 64, 7, 7]             128\n",
            "             ReLU-11             [-1, 64, 7, 7]               0\n",
            "        MaxPool2d-12             [-1, 64, 1, 1]               0\n",
            "           Linear-13                   [-1, 14]             910\n",
            "================================================================\n",
            "Total params: 66,446\n",
            "Trainable params: 66,446\n",
            "Non-trainable params: 0\n",
            "----------------------------------------------------------------\n",
            "Input size (MB): 0.19\n",
            "Forward/backward pass size (MB): 6.88\n",
            "Params size (MB): 0.25\n",
…
